Mobile_app_flutter/stockpredict/assets/model.tflite (tflite, 316124 bytes, 17 tensors)

sequential/lstm/Read_2/ReadVariableOp f4 [200]
0.013043697 0.029960304 0.03694876 0.083280236 0.02790286 0.25066873 0.07375534 0.009388436
0.018814148 0.014407758 0.32340688 0.21435635 -0.069566645 0.2066083 0.13319154 0.33556306
0.101140514 0.020041008 -0.045685455 0.039668076 0.021952378 0.5278177 0.00634469 0.012783636
0.026276734 0.020196639 -0.0034156472 0.004352381 0.047715504 0.049310524 0.22582269 0.068087205
0.0007669906 0.62456244 -0.016460164 -0.0007722681 0.019043459 0.12960535 0.050390884 0.014306543
0.060821466 0.008134371 0.11631442 0.016919639 0.053617693 0.0073058964 0.032968756 0.0249837
0.01927874 0.040393565 0.9664213 0.9123224 0.97302806 0.97984326 0.975125 0.9689988
0.9326988 0.9987732 0.98688465 0.9833089 0.8923316 0.95431006 0.91058713 0.8978676
0.9098113 0.8967507 0.94930446 0.99011487 0.95990014 0.9413232 0.9889408 0.80969125
0.99695766 0.9701785 1.0306754 0.9960473 1.0141717 0.98489904 0.9691175 0.9674396
0.8158176 0.9410534 0.9819861 0.9024109 0.9814505 0.9864943 0.993279 0.95293415
0.9643405 0.9544483 0.970148 0.91067845 0.94714415 0.9885056 0.956201 0.98409
0.97967976 0.88984424 0.9916126 0.94291455 -0.01769919 0.0121907955 -0.04887684 -0.058171805
-0.031244418 0.07099821 0.015326416 0.018877527 0.04827309 0.035978496 0.049542 -0.039484847
-0.016703784 0.03635033 0.016454583 -0.07030572 0.05012947 0.03644475 -0.014873065 -0.05959626
0.022915682 0.0458408 -0.030029159 0.03608463 0.05382101 0.03693332 -0.0150632765 0.03662814
-0.047372747 -0.04727416 -0.049985826 0.036993884 0.04822207 -0.060631976 0.004986528 0.04835053
-0.022977825 0.055728503 0.06981505 -0.044491768 0.036532376 0.020083874 0.058545012 -0.045712743
0.046542555 0.03791948 -0.049181953 0.020714326 -0.040070426 -0.059176125 0.011640054 0.028763494
0.038857076 0.08188261 0.028318804 0.23876366 0.071863815 0.009498769 0.021672362 0.014948935
0.31789598 0.20933273 -0.069592655 0.20317288 0.111273065 0.32105917 0.09969456 0.02035728
-0.04636513 0.037444342 0.021894032 0.5193082 0.0050872215 0.014387358 0.026085185 0.02095364
-0.0077317413 0.004269304 0.051803548 0.046035282 0.21533303 0.067724675 0.004529073 0.61370534
-0.015950676 0.0015584695 0.017470721 0.13343242 0.051055137 0.0139588555 0.06100303 0.007842141
0.11501426 0.017234439 0.053884156 0.009202861 0.036570527 0.025627902 0.02032819 0.037827667
00000000: 3bb5 553c 506f f53c 9557 173d d48e aa3d
00000010: 8a94 e43c a757 803e 0a0d 973d f4d1 193c
00000020: 2120 9a3c 840e 6c3c 9695 a53e 3b80 5b3e
00000030: f578 8ebd 2091 533e 5d63 083e ecce ab3e
00000040: c222 cf3d 0a2d a43c ac20 3bbd fe7a 223d
00000050: 79d5 b33c 101f 073f 1ee7 cf3b 7572 513c
00000060: 4e42 d73c 6c73 a53c 0dd9 5fbb 6b9e 8e3b
00000070: 5571 433d d5f9 493d 103e 673e 4e71 8b3d
00000080: de0f 493a 53e3 1f3f 77d7 86bc 0972 4aba
00000090: 0701 9c3c 44b7 043e ac66 4e3d fe65 6a3c
000000a0: ee1f 793d 0646 053c 4136 ee3d 0e9b 8a3c
000000b0: 3a9e 5b3d 4d66 ef3b 3f0a 073d 9eaa cc3c
000000c0: 73ee 9d3c b973 253d 6367 773f f68d 693f
000000d0: 5e18 793f 02d7 7a3f cba1 793f 4e10 783f
000000e0: 59c5 6e3f 9aaf 7f3f 79a4 7c3f 22ba 7b3f
000000f0: d86f 643f aa4d 743f 3d1c 693f a7da 653f
00000100: 65e9 683f 7491 653f 9e05 733f 2b78 7d3f
00000110: 04bc 753f 8ffa 703f 392b 7d3f ed47 4f3f
00000120: 9e38 7f3f 9e5d 783f 2ced 833f f5fc 7e3f
00000130: 61d0 813f 5822 7c3f 1618 783f 1faa 773f
00000140: 6cd9 503f e0e8 703f 7163 7b3f 6704 673f
00000150: 5740 7b3f e48a 7c3f 8847 7e3f 7ef3 733f
00000160: 05df 763f b956 743f 9f5b 783f 3922 693f
00000170: 0a78 723f b40e 7d3f 97c9 743f 52ed 7b3f
00000180: 4bcc 7a3f d5cc 633f 53da 7d3f d962 713f
00000190: e4fd 90bc e7bb 473c 1533 48bd 8f45 6ebd
000001a0: 4bf4 ffbc 8267 913d a61b 7b3c 0ba5 9a3c
000001b0: 01ba 453d 305e 133d 8dec 4a3d ddba 21bd
000001c0: 60d6 88bc 15e4 143d c3cb 863c 72fc 8fbd
000001d0: 8f54 4d3d 1747 153d 28ae 73bc 351b 74bd
000001e0: abb9 bb3c 90c3 3b3d b6ff f5bc 7acd 133d
000001f0: 6b73 5c3d 6547 173d f6cb 76bc 6307 163d
00000200: ed09 42bd 8da2 41bd f0bd 4cbd e686 173d
00000210: 8184 453d 3c59 78bd 0766 a33b 350b 463d
00000220: fe3b bcbc 9243 643d 31fb 8e3d 003d 36bd
00000230: f9a2 153d f086 a43c e5cc 6f3d 493d 3bbd
00000240: 68a3 3e3d 7551 1b3d 0473 49bd 17b1 a93c
00000250: e320 24bd aa62 72bd edb5 3e3c 6ba1 eb3c
00000260: 9928 1f3d 12b2 a73d d6fc e73c 767e 743e
00000270: 562d 933d baa0 1b3c 3d8a b13c 61ec 743c
00000280: 43c3 a23e 525b 563e 9886 8ebd 8d0c 503e
00000290: 22e3 e33d de61 a43e a92c cc3d 4fc4 a63c
000002a0: 5de9 3dbd 3d5f 193d 1d5b b33c 62f1 043f
000002b0: b5b2 a63b f4b8 6b3c 99b0 d53c f8a6 ab3c
000002c0: 8c5a fdbb 85e5 8b3b f52f 543d 7e8f 3c3d
000002d0: 4380 5c3e 3cb3 8a3d 9e68 943b cb1b 1d3f
000002e0: feaa 82bc 8f45 cc3a c21e 8f3c 82a2 083e
000002f0: 311f 513d afb3 643c 50de 793d 537c 003c
00000300: 998c eb3d 3d2f 8d3c a2b5 5c3d 99c7 163c
00000310: faca 153d 9bf1 d13c 4e87 a63c 2ff1 1a3d

sequential/lstm_3/Read_2/ReadVariableOp f4 [200]
0.002296278 0.01160288 0.00029368664 -0.018041708 0.0027165255 -0.025608948 -0.007684415 -0.011593843
0.002687725 -0.005201746 -0.013613551 0.01848512 0.022462426 -0.007844506 -0.0021769314 0.014411572
-0.007634526 0.022822862 -0.007001519 -0.017292704 -0.0018541175 0.016970769 -0.006470776 0.010161131
0.009351372 -0.009294156 0.005254492 -0.013341112 -0.0148959495 -0.023750972 -0.024095418 -0.0092389835
-0.0050485316 -0.020938247 -0.0057452307 -0.015737765 0.0030250654 0.011014099 -0.029462026 -0.0018450851
-0.030606696 -0.0008418693 -0.034099802 -0.003228307 -0.0064599495 -0.024330404 0.013761496 -0.017335245
-0.0061289114 -0.009330878 0.99378437 0.94488925 0.9966056 0.94178915 1.0021138 0.96235496
0.99157673 0.98835427 0.9966902 0.98516273 0.98445845 1.0162106 1.002044 0.98685604
0.998707 1.0097386 0.97793967 1.013327 0.99432087 0.9358685 0.95662475 0.99481153
0.97819793 0.9976311 0.9976596 0.9854781 0.9935701 0.9817484 0.97192955 0.9536492
0.9382977 0.99173886 0.985683 0.98173743 0.99524915 0.96452457 1.0030751 1.0098096
0.9600283 0.9963249 0.9523876 0.9499931 0.96246284 0.9952477 0.98337287 0.9672989
0.95747024 0.98043615 0.98759127 0.98299676 -0.032267153 0.045555554 0.032815203 -0.031164965
0.03135628 -0.02822293 -0.018711764 0.017759044 -0.034296602 -0.022721183 0.007956704 -0.030243788
0.031245366 0.0313752 -0.028838227 -0.04551734 0.028543867 -0.029402642 -0.021543166 0.034205437
-0.026889302 -0.02834506 0.03106843 0.030469172 -0.017762028 -0.02815843 -0.029588142 -0.022199588
-0.019105924 -0.039134324 0.029181948 -0.016199404 -0.026079997 0.009379548 0.029036727 0.028047511
-0.028396498 -0.0303935 -0.023324536 -0.015494425 0.020983143 -0.033662267 0.025181638 0.028333226
-0.013141537 -0.018272603 0.04061236 0.015170079 0.030559512 0.0300604 -0.0026220756 -0.0009782123
-0.0063520437 -0.019108266 0.0018514302 -0.026877264 -0.008535911 -0.0129624605 0.00040982608 -0.007101158
-0.017446432 0.015793314 0.015611847 -0.013492823 -0.005140848 0.0120138135 -0.011486724 0.012550565
-0.009339505 -0.02124532 -0.011959888 0.014636925 -0.0067108 0.004632655 -0.0008007764 -0.0099867135
0.0027297935 -0.013915197 -0.018862601 -0.028974917 -0.028257724 -0.012592239 -0.0075807283 -0.018769
-0.00697225 -0.018607419 0.0004175192 0.009484337 -0.03171828 -0.005442574 -0.03301773 -0.0004714357
-0.037852384 -0.00431 -0.009198466 -0.023113167 0.00911767 -0.018315881 -0.0065997676 -0.00993501
00000000: 277d 163b 021a 3e3c f4f9 9939 34cc 93bc
00000010: bc07 323b dbc9 d1bc 8ccd fbbb 1af4 3dbc
00000020: 8b24 303b 6873 aabb 5f0b 5fbc 1b6e 973c
00000030: 1f03 b83c 3e86 00bc d9aa 0ebb 841e 6c3c
00000040: 0c2b fabb 03f7 ba3c 006d e5bb 6ea9 8dbc
00000050: dc05 f3ba 4806 8b3c ce08 d4bb df7a 263c
00000060: 7f36 193c 8446 18bc e02d ac3b ae94 5abc
00000070: 240e 74bc 6691 c2bc c163 c5bc 1b5f 17bc
00000080: 276e a5bb b086 abbc 7d42 bcbb 7cec 80bc
00000090: 2d40 463b 7b74 343c 595a f1bc c8d6 f1ba
000000a0: e5ba fabc e4b0 5cba 3cac 0bbd 0192 53bb
000000b0: fcad d3bb 8e50 c7bc e677 613c a502 8ebc
000000c0: 09d5 c8bb 8ae0 18bc a768 7e3f 43e4 713f
000000d0: 8b21 7f3f 1819 713f 4445 803f e55c 763f
000000e0: f9d7 7d3f c904 7d3f 1727 7f3f a033 7c3f
000000f0: 7805 7c3f 3013 823f fa42 803f 99a2 7c3f
00000100: 43ab 7f3f 1d3f 813f 415a 7a3f b3b4 813f
00000110: d08b 7e3f 1495 6f3f 5ce5 743f f8ab 7e3f
00000120: 2e6b 7a3f c064 7f3f 9f66 7f3f 4b48 7c3f
00000130: 9c5a 7e3f dd53 7b3f 60d0 783f 5b22 743f
00000140: 4734 703f 99e2 7d3f b955 7c3f 2553 7b3f
00000150: a6c8 7e3f 15eb 763f c464 803f 7141 813f
00000160: 6ac4 753f 260f 7f3f accf 733f bf32 733f
00000170: f763 763f 8ec8 7e3f 53be 7b3f e7a0 773f
00000180: c51c 753f ddfd 7a3f c8d2 7c3f ada5 7b3f
00000190: 902a 04bd 7698 3a3d 3c69 063d ab4d ffbc
000001a0: 716f 003d c633 e7bc 6a49 99bc 6a7b 913c
000001b0: 987a 0cbd c621 babc d65c 023c d2c1 f7bc
000001c0: 48f6 ff3c 4883 003d 253e ecbc 6470 3abd
000001d0: d4d4 e93c cfdd f0bc 4b7b b0bc 001b 0c3d
000001e0: f446 dcbc e633 e8bc 3883 fe3c 7c9a f93c
000001f0: ac81 91bc 82ac e6bc d562 f2bc e9db b5bc
00000200: 0784 9cbc 504b 20bd fb0e ef3c 9db4 84bc
00000210: b8a5 d5bc adac 193c 6ede ed3c e5c3 e53c
00000220: c69f e8bc cafb f8bc 1913 bfbc 54dc 7dbc
00000230: d7e4 ab3c 72e1 09bd b949 ce3c 151b e83c
00000240: 9a4f 57bc 6db0 95bc 2559 263d ec8b 783c
00000250: f157 fa3c 3a41 f63c 21d7 2bbb 5c37 80ba
00000260: ce24 d0bb f088 9cbc b0ab f23a b52d dcbc
00000270: 35da 0bbc 8060 54bc eddd d639 d5b0 e8bb
00000280: d2eb 8ebc fb60 813c d5c8 7f3c 0011 5dbc
00000290: 8f74 a8bb 96d5 443c d032 3cbc e3a0 4d3c
000002a0: b904 19bc aa0a aebc 68f3 43bc b7cf 6f3c
000002b0: 45e6 dbbb 87cd 973b 32eb 51ba 509f 23bc
000002c0: 56e6 323b 91fc 63bc be85 9abc ce5c edbc
000002d0: be7c e7bc ae4f 4ebc c267 f8bb 72c1 99bc
000002e0: 7977 e4bb 966e 98bc 7ae6 da39 3164 1b3c
000002f0: 07eb 01bd 9f57 b2bb 993d 07bd 072b f7b9
00000300: 1a0b 1bbd e73a 8dbb 2ab5 16bc d357 bdbc
00000310: 4862 153c 300b 96bc dd42 d8bb 74c6 22bc

sequential/lstm_2/Read_2/ReadVariableOp f4 [200]
0.01176743 -0.021221459 0.15009058 -0.03568019 0.023065504 0.011964176 0.01797132 -0.006726717
-0.010381 0.17771308 -0.0040076873 0.03353801 0.0601814 -0.10311102 0.12949283 0.074914984
-0.0065564383 -0.0025917056 0.04589192 -0.004196272 0.0005202691 0.08006158 0.014621821 0.0014589537
-4.1105544e-05 -0.006078965 -0.04018547 0.11858366 0.0009032067 0.052459765 -0.017322103 0.0027496938
0.0033931383 -0.021869184 0.004475648 0.0059813107 0.006501113 0.035200853 -0.0013572 0.25110886
0.078653 -0.0012542388 -0.015036261 0.085561074 0.004047666 -0.013529829 0.018398045 -0.0065591726
-0.03384812 -0.007989052 0.993839 0.9484583 0.8725763 0.96096665 0.9992155 0.9594851
0.9898176 0.9914773 0.9602981 0.8048974 0.9823191 0.913098 0.908197 0.91196346
0.8970018 0.95596373 0.98467356 0.9849059 0.9165455 0.97582537 0.97029924 0.88151133
0.9802877 0.9837384 0.9685047 0.9789097 0.90108454 0.89828473 0.9696946 0.973774
0.9627729 0.9857171 0.9917779 0.96705496 0.9922697 0.97626466 0.97403836 0.98092276
0.9851313 0.7866613 0.9073661 0.9807813 0.9845253 0.9195063 0.9835613 0.88631994
0.9826137 0.9886272 0.97190744 0.98400414 -0.0044862796 0.0026277448 -0.0016699913 -0.013421402
0.0001892907 -0.0026187813 -0.0024123967 0.002645847 -0.00095867837 0.0044611334 0.0024378218 0.0035788114
-0.0059163827 -0.00011379276 -0.0011272987 -0.0074646818 0.001485023 0.0003209169 0.004544556 0.0009895092
-0.00039074162 -0.006660844 0.0034479233 0.003093089 0.00087606994 0.0035001042 -0.003956935 0.0026412394
0.0005701 0.0048774816 0.004788562 0.0018291501 -0.0008760082 7.480787e-05 0.0017833614 -0.0013856629
0.0012774256 -0.0069169723 -0.0058371434 -0.0016110113 0.0005367219 -0.001417387 -0.003928142 -0.0024665212
-0.004277268 -0.00031776924 0.0016598295 0.003783744 -0.000411382 -0.0051549235 0.0097801 -0.022148388
0.15093286 -0.035684906 0.02281508 0.009231123 0.017390557 -0.006801 -0.011740099 0.17299123
-0.0038593076 0.032312658 0.05888381 -0.101368 0.12724155 0.069402196 -0.008130981 -0.0034082804
0.04191268 -0.0064049494 -0.00011054773 0.08459434 0.014123883 0.0014715168 0.0003081921 -0.0063259867
-0.04065641 0.120234996 -0.00044664321 0.050236005 -0.017203184 0.0017219137 0.0028306637 -0.022340035
0.0042906706 0.0061974283 0.0054434845 0.031465963 -0.0018581775 0.2509528 0.073026925 -0.0016348952
-0.014937396 0.083454035 0.0019732588 -0.016635366 0.018369816 -0.0064282273 -0.03402043 -0.009185461
00000000: 2ecc 403c a0d8 adbc 58b1 193e 6425 12bd
00000010: def3 bc3c 6405 443c 9738 933c cb6b dcbb
00000020: 1215 2abc 6bfa 353e eb52 83bb 275f 093d
00000030: c680 763d df2b d3bd c599 043e 076d 993d
00000040: 64d7 d6bb 9bd9 29bb 2af9 3b3d e280 89bb
00000050: ab62 083a 53f7 a33d 5d90 6f3c 5d3a bf3a
00000060: be68 2cb8 0e32 c7bb 8599 24bd fddb f23d
00000070: 2dc5 6c3a 0de0 563d 15e7 8dbc 3534 343b
00000080: 6a5f 5e3b 0127 b3bc 75a8 923b dffe c33b
00000090: 4a07 d53b c52e 103d 13e4 b1ba 5791 803e
000000a0: d314 a13d 4565 a4ba a65a 76bc a53a af3d
000000b0: 49a2 843b 37ac 5dbc 7fb7 963c 54ee d6bb
000000c0: 54a4 0abd 83e4 02bc 3c6c 7e3f 2ace 723f
000000d0: 2961 5f3f e901 763f 96cc 7f3f d1a0 753f
000000e0: b064 7d3f 75d1 7d3f 19d6 753f c20d 4e3f
000000f0: 4479 7b3f cac0 693f 997f 683f 7076 693f
00000100: e9a1 653f 0aba 743f 9113 7c3f cb22 7c3f
00000110: baa2 6a3f b1cf 793f 8865 783f baaa 613f
00000120: 22f4 7a3f 48d6 7b3f edef 773f d399 7a3f
00000130: 7aad 663f fdf5 653f e83d 783f 4149 793f
00000140: 4978 763f f557 7c3f 28e5 7d3f ea90 773f
00000150: 6305 7e3f 7bec 793f 945a 793f c11d 7b3f
00000160: 9131 7c3f a362 493f 2549 683f 7c14 7b3f
00000170: da09 7c3f c464 6b3f acca 7b3f dde5 623f
00000180: 928c 7b3f ac16 7d3f edce 783f b2e7 7b3f
00000190: a401 93bb 3e36 2c3b 9ce3 daba 71e5 5bbc
000001a0: 567c 4639 dc9f 2bbb 4d19 1ebb f265 2d3b
000001b0: d14f 7bba b32e 923b ddc3 1f3b 7e8a 6a3b
000001c0: 37de c1bb 06a4 eeb8 dec1 93ba 4a9a f4bb
000001d0: 1aa5 c23a bd40 a839 80ea 943b 6bb2 813a
000001e0: 74dc ccb9 3643 dabb 8ef6 613b 6cb5 4a3b
000001f0: 0fa8 653a 0162 653b 2da9 81bb a518 2d3b
00000200: c372 153a 48d3 9f3b 5fe9 9c3b 18c0 ef3a
00000210: eaa3 65ba 2be2 9c38 aebf e93a 229f b5ba
00000220: 4a6f a73a c5a7 e2bb 8245 bfbb 9228 d3ba
00000230: ccb2 0c3a 9ec7 b9ba a5b7 80bb 5ca5 21bb
00000240: 5328 8cbb 449a a6b9 a38e d93a b1f8 773b
00000250: c2ae d7b9 a2ea a8bb b63c 203c 8970 b5bc
00000260: 258e 1a3e 562a 12bd b1e6 ba3c 233e 173c
00000270: a476 8e3c ecda debb 8b59 40bc 9d24 313e
00000280: 70ec 7cbb 475a 043d 2630 713d 079a cfbd
00000290: 9c4b 023e bd22 8e3d ce37 05bc 755d 5fbb
000002a0: a1ac 2b3d 9ce0 d1bb dcd5 e7b8 cc3f ad3d
000002b0: dc67 673c e9df c03a d894 a139 394a cfbb
000002c0: 5687 26bd c43d f63d 702b eab9 45c4 4d3d
000002d0: b1ed 8cbc d6b1 e13a a882 393b 7302 b7bc
000002e0: c198 8c3b cc13 cb3b 425f b23b 74e2 003d
000002f0: 178e f3ba e37c 803e 248f 953d fb49 d6ba
00000300: fbbb 74bc f3e9 aa3d ca51 013b e446 88bc
00000310: 4c7c 963c e1a3 d2bb 0259 0bbd 9e7e 16bc

sequential/lstm_1/Read_2/ReadVariableOp f4 [200]
-0.0047524227 0.14725792 0.008031439 0.048170857 -0.014149401 0.03652675 0.00931154 0.03779206
0.008719217 -0.014994486 0.0055218055 -0.001378255 0.005014394 -0.0022906607 0.045353215 0.11342702
-0.0010049214 0.00024724795 -0.019381326 0.18501955 -0.0024182326 0.05043565 -0.0037092401 -0.0083645005
0.04338179 0.003593733 0.124728 0.9227373 0.027483586 0.369999 0.043950036 0.009083856
0.07812908 -0.0014537713 0.016443126 -0.017057458 -0.0013473305 0.0037634354 -0.02155098 0.016170619
0.010029526 0.15268624 -0.009738133 0.0061285277 -0.00030664817 0.078384936 -0.035707626 -0.0107821245
0.002907094 0.014085374 0.96069455 0.89285445 0.9894237 0.9547881 0.9573593 0.9833314
0.9937986 0.9740505 0.98461735 0.96261054 0.9878991 0.96792156 0.9928659 0.9751052
0.97314984 0.9723045 0.9803837 0.98739475 0.96904355 0.87012523 0.9617498 0.957916
0.98552597 0.9805914 0.9343577 0.99189615 0.8914924 0.7174052 0.9609105 0.8639201
0.9222095 0.9410305 0.9139899 0.9847828 0.9918447 0.9605546 0.9592362 0.9845277
0.95080346 0.9770785 0.98361915 0.9054414 0.9804433 0.9711436 0.9818141 0.9113704
0.94591874 0.95739466 0.98869437 0.95188415 0.014543052 -0.022688236 0.008078257 -0.015388316
0.0054068957 -0.0066642473 -0.011598067 0.011928975 -0.015245549 -0.008768032 0.010833086 -0.0071248217
-0.01577283 -0.010010856 -0.016423319 -0.0144839715 0.015230983 -0.018090256 0.012215971 -0.018704765
0.010377458 -0.017864767 -0.0132523915 0.007686788 0.0042303614 -0.00013069715 -0.009165911 -0.016392674
-0.024352161 0.015517197 -0.0020825362 -0.008324078 -0.013077611 -0.0123312585 -0.012878872 -0.0097723305
-0.012401528 -0.013803553 -0.0069485446 0.017542223 -0.011891921 0.0049947463 -0.003184301 -0.0010306137
-0.012239882 0.021990556 -0.0022807966 -0.0052526393 -0.01516702 0.006128818 -0.0053033 0.1488558
0.007804186 0.045389116 -0.014706137 0.036026347 0.008673466 0.036594883 0.008324109 -0.014839141
0.0049381424 -0.0013788368 0.0049065743 -0.001221766 0.04445137 0.11066822 -0.0010117919 0.00043474112
-0.01932366 0.18630804 -0.003562261 0.047731068 -0.0038929705 -0.00807882 0.041105643 0.0037428848
0.11016267 0.92800826 0.025498541 0.35990202 0.04275926 0.007423248 0.077739455 -0.0011131327
0.016198931 -0.017108358 -0.00092748983 0.0031094146 -0.021522071 0.01774246 0.008135698 0.14916469
-0.009776042 0.0062784464 0.00036476768 0.079233184 -0.037874937 -0.01042461 0.004675211 0.013763685
00000000: 36ba 9bbb c8ca 163e 4c96 033c ce4e 453d
00000010: e4d2 67bc 139d 153d 6e8f 183c d9cb 1a3d
00000020: 0cdb 0e3c 6fab 75bc 43f0 b43b 90a6 b4ba
00000030: c94f a43b e91e 16bb 4bc4 393d 6d4c e83d
00000040: 91b7 83ba 0fa1 8139 96c5 9ebc c475 3d3e
00000050: 367b 1ebb 9d95 4e3d b916 73bb 420b 09bc
00000060: 1bb1 313d d684 6b3b 6571 ff3d 8338 6c3f
00000070: 4225 e13c 8270 bd3e f404 343d 74d4 143c
00000080: 2402 a03d 788c beba bcb3 863c 15bc 8bbc
00000090: e998 b0ba f8a3 763b ae8b b0bc 3f78 843c
000000a0: e252 243c c859 1c3e b18c 1fbc d1d1 c83b
000000b0: 9fc5 a0b9 4888 a03d 2942 12bd 82a7 30bc
000000c0: f284 3e3b 57c6 663c 14f0 753f 1c92 643f
000000d0: df4a 7d3f fe6c 743f 8015 753f 9bbb 7b3f
000000e0: 9669 7e3f 605b 793f e20f 7c3f a56d 763f
000000f0: f5e6 7c3f b5c9 773f 762c 7e3f 7fa0 793f
00000100: 5920 793f f3e8 783f 6dfa 7a3f e7c5 7c3f
00000110: 3d13 783f 87c0 5e3f 3c35 763f fc39 753f
00000120: 6e4b 7c3f 0a08 7b3f 1132 6f3f e8ec 7d3f
00000130: d938 643f dea7 373f 3bfe 753f de29 5d3f
00000140: ec15 6c3f 60e7 703f 3efb 693f ba1a 7c3f
00000150: 89e9 7d3f e8e6 753f 8190 753f 020a 7c3f
00000160: db67 733f d121 7a3f 77ce 7b3f 02cb 673f
00000170: 55fe 7a3f de9c 783f 2b58 7b3f 924f 693f
00000180: bb27 723f d117 753f 131b 7d3f aeae 733f
00000190: fb45 6e3c aedc b9bc aa5a 043c 461f 7cbc
000001a0: 542c b13b c25f dabb d205 3ebc bf71 433c
000001b0: 78c8 79bc cba7 0fbc 427d 313c 5677 e9bb
000001c0: 0636 81bc 9304 24bc 328a 86bc 2e4e 6dbc
000001d0: 5f8b 793c 0432 94bc 7f25 483c bc3a 99bc
000001e0: 3706 2a3c 2259 92bc 8f20 59bc 74e1 fb3b
000001f0: d89e 8a3b c00b 09b9 9e2c 16bc ee49 86bc
00000200: 2f7e c7bc d73b 7e3c 297b 08bb b761 08bc
00000210: 7a43 56bc 0c09 4abc e801 53bc 201c 20bc
00000220: c72f 4bbc 4c28 62bc 9eb0 e3bb b5b4 8f3c
00000230: 55d6 42bc f8aa a33b b5af 50bb a815 87ba
00000240: c989 48bc 8a25 b43c 6b79 15bb 551e acbb
00000250: 187f 78bc 40d4 c83b 4ec7 adbb a86d 183e
00000260: 42ba ff3b f0e9 393d 02f2 70bc 5d90 133d
00000270: 271b 0e3c 84e4 153d d861 083c de1f 73bc
00000280: 24d0 a13b 16ba b4ba 54c7 a03b aa23 a0ba
00000290: a412 363d 05a6 e23d 1a9e 84ba f7ed e339
000002a0: a74c 9ebc 89c7 3e3e d274 69bb a781 433d
000002b0: 3521 7fbb 075d 04bc 645e 283d 304b 753b
000002c0: f79c e13d f391 6d3f 51e2 d03c 1445 b83e
000002d0: 5524 2f3d b83e f33b dd35 9f3d 89e6 91ba
000002e0: 9fb3 843c d426 8cbc ca22 73ba 52c7 4b3b
000002f0: 0e4f b0bc a358 913c 974b 053c a1be 183e
00000300: b12b 20bc 6dbb cd3b 4a3e bf39 0245 a23d
00000310: c022 1bbd fccb 2abc 8332 993b 1481 613c

sequential/dense/MatMul f4 [1, 50]
-0.11325178 0.14317253 0.10227816 -0.33401528 0.16924992 -0.22142117 -0.15700206 0.19261372
-0.251509 -0.18705714 0.11789485 -0.11805769 0.21842131 0.13303031 -0.14466678 -0.0973879
0.19215305 -0.10062739 -0.13473648 0.14415231 -0.11650525 -0.18868425 0.26613444 0.11844746
-0.10761994 -0.22281545 -0.16054101 -0.32977742 -0.09610901 -0.16940147 0.22921057 -0.118077025
-0.18435106 0.26415896 0.2092317 0.23347864 -0.139183 -0.13131273 -0.24847552 -0.1338208
0.23357072 -0.2332128 0.122053005 0.21922752 -0.1498764 -0.29154325 0.2038089 0.15907389
0.323779 0.31408828
00000000: 8df0 e7bd d29b 123e 3677 d13d 0d04 abbe
00000010: da4f 2d3e 3bbc 62be 26c5 20be 883c 453e
00000020: cac5 80be e88b 3fbe db72 f13d 3bc8 f1bd
00000030: d6a9 5f3e 1939 083e 8723 14be 4f73 c7bd
00000040: c5c3 443e bc15 cebd 5cf8 09be aa9c 133e
00000050: 4e9a eebd 7236 41be c642 883e 9594 f23d
00000060: d867 dcbd bc29 64be dd64 24be 96d8 a8be
00000070: cdd4 c4bd 9477 2dbe 2db6 6a3e 5ed2 f1bd
00000080: 86c6 3cbe d83f 873e d640 563e 0615 6f3e
00000090: fd85 0ebe d876 06be 5e70 7ebe 5208 09be
000000a0: 2a2d 6f3e 56cf 6ebe edf6 f93d 2e7d 603e
000000b0: 3379 19be 2845 95be 48b3 503e 44e4 223e
000000c0: 5cc6 a53e 2ed0 a03e

sequential/lstm/Read_2/ReadVariableOp1 f4 [200]
0.013043697 0.029960304 0.03694876 0.083280236 0.02790286 0.25066873 0.07375534 0.009388436
0.018814148 0.014407758 0.32340688 0.21435635 -0.069566645 0.2066083 0.13319154 0.33556306
0.101140514 0.020041008 -0.045685455 0.039668076 0.021952378 0.5278177 0.00634469 0.012783636
0.026276734 0.020196639 -0.0034156472 0.004352381 0.047715504 0.049310524 0.22582269 0.068087205
0.0007669906 0.62456244 -0.016460164 -0.0007722681 0.019043459 0.12960535 0.050390884 0.014306543
0.060821466 0.008134371 0.11631442 0.016919639 0.053617693 0.0073058964 0.032968756 0.0249837
0.01927874 0.040393565 0.9664213 0.9123224 0.97302806 0.97984326 0.975125 0.9689988
0.9326988 0.9987732 0.98688465 0.9833089 0.8923316 0.95431006 0.91058713 0.8978676
0.9098113 0.8967507 0.94930446 0.99011487 0.95990014 0.9413232 0.9889408 0.80969125
0.99695766 0.9701785 1.0306754 0.9960473 1.0141717 0.98489904 0.9691175 0.9674396
0.8158176 0.9410534 0.9819861 0.9024109 0.9814505 0.9864943 0.993279 0.95293415
0.9643405 0.9544483 0.970148 0.91067845 0.94714415 0.9885056 0.956201 0.98409
0.97967976 0.88984424 0.9916126 0.94291455 -0.01769919 0.0121907955 -0.04887684 -0.058171805
-0.031244418 0.07099821 0.015326416 0.018877527 0.04827309 0.035978496 0.049542 -0.039484847
-0.016703784 0.03635033 0.016454583 -0.07030572 0.05012947 0.03644475 -0.014873065 -0.05959626
0.022915682 0.0458408 -0.030029159 0.03608463 0.05382101 0.03693332 -0.0150632765 0.03662814
-0.047372747 -0.04727416 -0.049985826 0.036993884 0.04822207 -0.060631976 0.004986528 0.04835053
-0.022977825 0.055728503 0.06981505 -0.044491768 0.036532376 0.020083874 0.058545012 -0.045712743
0.046542555 0.03791948 -0.049181953 0.020714326 -0.040070426 -0.059176125 0.011640054 0.028763494
0.038857076 0.08188261 0.028318804 0.23876366 0.071863815 0.009498769 0.021672362 0.014948935
0.31789598 0.20933273 -0.069592655 0.20317288 0.111273065 0.32105917 0.09969456 0.02035728
-0.04636513 0.037444342 0.021894032 0.5193082 0.0050872215 0.014387358 0.026085185 0.02095364
-0.0077317413 0.004269304 0.051803548 0.046035282 0.21533303 0.067724675 0.004529073 0.61370534
-0.015950676 0.0015584695 0.017470721 0.13343242 0.051055137 0.0139588555 0.06100303 0.007842141
0.11501426 0.017234439 0.053884156 0.009202861 0.036570527 0.025627902 0.02032819 0.037827667
00000000: 3bb5 553c 506f f53c 9557 173d d48e aa3d
00000010: 8a94 e43c a757 803e 0a0d 973d f4d1 193c
00000020: 2120 9a3c 840e 6c3c 9695 a53e 3b80 5b3e
00000030: f578 8ebd 2091 533e 5d63 083e ecce ab3e
00000040: c222 cf3d 0a2d a43c ac20 3bbd fe7a 223d
00000050: 79d5 b33c 101f 073f 1ee7 cf3b 7572 513c
00000060: 4e42 d73c 6c73 a53c 0dd9 5fbb 6b9e 8e3b
00000070: 5571 433d d5f9 493d 103e 673e 4e71 8b3d
00000080: de0f 493a 53e3 1f3f 77d7 86bc 0972 4aba
00000090: 0701 9c3c 44b7 043e ac66 4e3d fe65 6a3c
000000a0: ee1f 793d 0646 053c 4136 ee3d 0e9b 8a3c
000000b0: 3a9e 5b3d 4d66 ef3b 3f0a 073d 9eaa cc3c
000000c0: 73ee 9d3c b973 253d 6367 773f f68d 693f
000000d0: 5e18 793f 02d7 7a3f cba1 793f 4e10 783f
000000e0: 59c5 6e3f 9aaf 7f3f 79a4 7c3f 22ba 7b3f
000000f0: d86f 643f aa4d 743f 3d1c 693f a7da 653f
00000100: 65e9 683f 7491 653f 9e05 733f 2b78 7d3f
00000110: 04bc 753f 8ffa 703f 392b 7d3f ed47 4f3f
00000120: 9e38 7f3f 9e5d 783f 2ced 833f f5fc 7e3f
00000130: 61d0 813f 5822 7c3f 1618 783f 1faa 773f
00000140: 6cd9 503f e0e8 703f 7163 7b3f 6704 673f
00000150: 5740 7b3f e48a 7c3f 8847 7e3f 7ef3 733f
00000160: 05df 763f b956 743f 9f5b 783f 3922 693f
00000170: 0a78 723f b40e 7d3f 97c9 743f 52ed 7b3f
00000180: 4bcc 7a3f d5cc 633f 53da 7d3f d962 713f
00000190: e4fd 90bc e7bb 473c 1533 48bd 8f45 6ebd
000001a0: 4bf4 ffbc 8267 913d a61b 7b3c 0ba5 9a3c
000001b0: 01ba 453d 305e 133d 8dec 4a3d ddba 21bd
000001c0: 60d6 88bc 15e4 143d c3cb 863c 72fc 8fbd
000001d0: 8f54 4d3d 1747 153d 28ae 73bc 351b 74bd
000001e0: abb9 bb3c 90c3 3b3d b6ff f5bc 7acd 133d
000001f0: 6b73 5c3d 6547 173d f6cb 76bc 6307 163d
00000200: ed09 42bd 8da2 41bd f0bd 4cbd e686 173d
00000210: 8184 453d 3c59 78bd 0766 a33b 350b 463d
00000220: fe3b bcbc 9243 643d 31fb 8e3d 003d 36bd
00000230: f9a2 153d f086 a43c e5cc 6f3d 493d 3bbd
00000240: 68a3 3e3d 7551 1b3d 0473 49bd 17b1 a93c
00000250: e320 24bd aa62 72bd edb5 3e3c 6ba1 eb3c
00000260: 9928 1f3d 12b2 a73d d6fc e73c 767e 743e
00000270: 562d 933d baa0 1b3c 3d8a b13c 61ec 743c
00000280: 43c3 a23e 525b 563e 9886 8ebd 8d0c 503e
00000290: 22e3 e33d de61 a43e a92c cc3d 4fc4 a63c
000002a0: 5de9 3dbd 3d5f 193d 1d5b b33c 62f1 043f
000002b0: b5b2 a63b f4b8 6b3c 99b0 d53c f8a6 ab3c
000002c0: 8c5a fdbb 85e5 8b3b f52f 543d 7e8f 3c3d
000002d0: 4380 5c3e 3cb3 8a3d 9e68 943b cb1b 1d3f
000002e0: feaa 82bc 8f45 cc3a c21e 8f3c 82a2 083e
000002f0: 311f 513d afb3 643c 50de 793d 537c 003c
00000300: 998c eb3d 3d2f 8d3c a2b5 5c3d 99c7 163c
00000310: faca 153d 9bf1 d13c 4e87 a63c 2ff1 1a3d

while/MatMul_11 f4 [200, 50]
0.067395695 -0.032181997 0.045266975 0.01939664 -0.033927545 -0.069562756 0.13086265 0.025465539
0.13690524 0.062448137 -0.2039994 0.022789406 -0.024129415 0.14637193 -0.042085726 -0.041310217
0.030459242 -0.055965174 -0.008137453 0.08807984 0.039473437 0.027272286 -0.12103678 0.06975266
-0.062671766 0.05831003 0.035568602 0.0039177467 0.028173542 0.07025022 0.0067797746 -0.024199177
0.04657198 0.1831241 0.036071293 0.05698754 -0.03535558 -0.25121948 0.016073965 -0.057227913
-0.034271564 -0.16151746 0.005069787 -0.11273353 0.017429471 0.0642201 -0.08879404 0.141499
0.011294133 -0.16469161 -0.012233727 0.17169617 -0.045437932 0.18561651 -0.0051652454 0.087621845
0.016649427 0.063232996 0.099346906 -0.056414932 -0.024659662 -0.021049578 -0.053170163 0.11659965
-0.07329233 0.026721422 0.02669984 0.034321405 -0.011618498 -0.037782747 -0.16039006 0.0719418
0.054549824 0.09658828 -0.0373788 -0.053690784 0.070682965 -0.20926833 -0.0819537 -0.088853724
-0.047989592 -0.039800152 0.026959363 -0.19020902 -0.0039916 -0.06312116 -0.013240909 -0.016601989
-0.0019737664 -0.018705316 0.058172185 0.15783654 0.043600257 -0.14213638 0.1462674 0.090616964
-0.100123286 -0.023051295 -0.07816624 -0.072999045 0.20080924 0.07501655 -0.005300063 0.12461309
0.023553118 0.0043881824 -0.13642237 0.0001038449 -0.051381104 0.009917488 -0.042414702 0.15815476
0.11104881 -0.13440333 -0.023248408 0.11669136 -0.0620816 -0.0077519664 0.07948715 0.022692995
-0.114318095 0.01879527 0.040006742 0.084189296 0.10865119 0.01820335 0.005648399 0.0012902898
0.010421882 0.09151567 -0.053226545 0.06623638 -0.035545055 -0.122505926 -0.18904598 -0.059224684
0.08302367 -0.050560396 -0.005240334 -0.096414424 -0.10743099 -0.05378676 -0.011826138 0.14291357
-0.14380367 0.004045562 0.11371753 0.1118191 -0.00045888577 -0.07865283 0.15138933 0.14014299
-0.03592711 0.14572942 0.1581898 -0.11587714 -0.12064832 -0.045362655 -0.046810355 -0.02068326
-0.06314464 0.0025639927 0.07327285 -0.09512985 -0.19499603 0.045059238 -0.018571954 -0.040889893
0.013758986 0.07158566 0.06595013 -0.12577856 -0.124732114 0.011054885 0.012800021 -0.086388774
-0.15437135 0.041124444 -0.11941611 0.051775802 -0.022228591 -0.014948159 -0.1024813 0.038440686
-0.091340534 -0.06432604 0.19670685 0.06334517 -0.09811272 0.15268505 -0.11306948 0.02891145
0.049017638 0.0970289 -0.0025970365 -0.11017076 -0.0033819037 -0.065395236 0.20286994 -0.07910825
-0.00681002 -0.04770111 0.1793474 0.01887471 -0.023195898 0.0668535 -0.10392594 -0.06969218
-0.056332618 0.05358352 -0.051578965 -0.113367006 0.0006554729 -0.00058222754 -0.07796845 0.09878456
0.029529985 0.07658699 0.065822154 -0.07744818 0.0016895169 0.065446034 -0.028356837 -0.08670498
-0.01576909 -0.09255827 0.09970747 0.05886403 0.13488643 0.047124706 -0.0056689857 -0.04239706
-0.056526277 0.039280813 0.050453965 0.067195825 0.009430524 -0.009964916 -0.057301577 -0.06415744
-0.01394826 -0.05422533 -0.08673063 -0.02476879 -0.093326785 -0.24180764 0.11118085 0.0027696188
0.08678893 -0.09848965 0.22401346 0.07507038 0.21885592 0.096693896 0.16703156 -0.23353666
00000000: c106 8a3d 45d1 03bd dd69 393d b4e5 9e3c
00000010: 9cf7 0abd eb76 8ebd dc00 063e 1b9d d03c
00000020: e330 0c3e 9ec9 7f3d 38e5 50be d9b0 ba3c
00000030: 0dab c5bc 86e2 153e 1562 2cbd e734 29bd
00000040: a985 f93c bd3b 65bd f452 05bc 3463 b43d
00000050: e6ae 213d 216a df3c 22e2 f7bd 7cda 8e3d
00000060: 0e5a 80bd 7fd6 6e3d 62b0 113d 7160 803b
00000070: 33cc e63c 59df 8f3d df28 de3b 5a3d c6bc
00000080: 43c2 3e3d e284 3b3e 7ebf 133d c46b 693d
00000090: 03d1 10bd d79f 80be 8cad 833c d167 6abd
000000a0: 5760 0cbd d564 25be 7520 a63b d6e0 e6bd
000000b0: 40c8 8e3c d485 833d a6d9 b5bd 1de5 103e
000000c0: 070b 393c eba4 28be f86f 48bc 1fd1 2f3e
000000d0: 201d 3abd 4112 3e3e 3841 a9bb 1573 b33d
000000e0: 6164 883c 4d80 813d 6476 cb3d 5813 67bd
000000f0: 0f03 cabc 2a70 acbc f5c8 59bd cccb ee3d
00000100: 4a1a 96bd e2e6 da3c 9fb9 da3c 9a94 0c3d
00000110: 835b 3ebc 15c2 1abd 4b3d 24be 3956 933d
00000120: a36f 5f3d 13d0 c53d 831a 19bd deea 5bbd
00000130: 3bc2 903d 704a 56be 57d7 a7bd f1f8 b5bd
00000140: bc90 44bd 7c05 23bd e2d9 dc3c 27c6 42be
00000150: f8cb 82bb ab45 81bd 66f0 58bc e500 88bc
00000160: 4e5a 01bb e43b 99bc f545 6e3d e79f 213e
00000170: 2f96 323d 338c 11be 1fc7 153e 6395 b93d
00000180: 700d cdbd 12d6 bcbc 9f15 a0bd 8680 95bd
00000190: f0a0 4d3e 47a2 993d 27ac adbb 2635 ff3d
000001a0: 78f2 c03c beca 8f3b 4eb2 0bbe 4ec7 d938
000001b0: fe74 52bd f67c 223c 0abb 2dbd 52f3 213e
000001c0: 8f6d e33d 07a1 09be 7273 bebc e1fb ee3d
000001d0: 4749 7ebd 3504 febb 29ca a23d a9e6 b93c
000001e0: 9b1f eabd 8af8 993c 1cde 233d 706b ac3d
000001f0: 8484 de3d 311f 953c 3416 b93b f11e a93a
00000200: 8bc0 2a3c 916c bb3d 1404 5abd f0a6 873d
00000210: b197 11bd 63e4 fabd 4595 41be 9595 72bd
00000220: 5008 aa3d 6b18 4fbd 1cb7 abbb ed74 c5bd
00000230: c704 dcbd 814f 5cbd 6bc2 41bc ef57 123e
00000240: 4541 13be a290 843b bde4 e83d 6a01 e53d
00000250: 9b96 f0b9 bc14 a1bd ce05 1b3e a581 0f3e
00000260: 4e28 13bd 183a 153e 82fc 213e fe50 edbd
00000270: 7716 f7bd 31ce 39bd 37bc 3fbd f16f a9bc
00000280: fa51 81bd a908 283b 1310 963d 70d3 c2bd
00000290: 0aad 47be 0990 383d 3624 98bc 297c 27bd
000002a0: 5f6d 613c 819b 923d dd10 873d 18cc 00be
000002b0: 8d73 ffbd 8c1f 353c 2eb7 513c 99ec b0bd
000002c0: 8613 1ebe 1b72 283d 6f90 f4bd dd12 543d
000002d0: bc18 b6bc 20e9 74bc b7e1 d1bd fb73 1d3d
000002e0: bf10 bbbd 5fbd 83bd 856d 493e 1dbb 813d
000002f0: 52ef c8bd 7859 1c3e f990 e7bd b5d7 ec3c
00000300: b8c6 483d 17b7 c63d 0b33 2abb 35a1 e1bd
00000310: eea2 5dbb f0ed 85bd 23bd 4f3e 8203 a2bd
00000320: 9726 dfbb 3d62 43bd d8a6 373e 239f 9a3c
00000330: 5305 bebc 7dea 883d 20d7 d4bd c6ba 8ebd
00000340: 08bd 66bd 657a 5b3d 7744 53bd f62c e8bd
00000350: 0bd4 2b3a a1a0 18ba ecad 9fbd 8f4f ca3d
00000360: dee8 f13c a4d9 9c3d c4cd 863d 279d 9ebd
00000370: c872 dd3a 9208 863d 994c e8bc 6192 b1bd
00000380: 2e2e 81bc 318f bdbd 6e33 cc3d 691b 713d
00000390: ab1f 0a3e d605 413d e6c2 b9bb 8aa8 2dbd
000003a0: 1988 67bd ebe4 203d d1a8 4e3d f79d 893d
000003b0: 7c82 1a3c e343 23bc 0fb5 6abd fa64 83bd
000003c0: 3e87 64bc 611b 5ebd d49f b1bd ebe7 cabc
000003d0: 1d22 bfbd 6c9c 77be c9b2 e33d 7e82 353b
000003e0: 65be b13d f1b4 c9bd c963 653e 80be 993d
000003f0: c41b 603e 7307 c63d 520a 2b3e 3c24 6fbe

while/MatMul f4 [200, 1]
-0.12520018 0.14374702 0.20965241 0.08757016 0.13466619 0.27176178 0.070507385 -0.053773664
0.18605018 -0.08608654 0.12491389 0.1083808 -0.24073148 0.35614792 0.0192061 0.21541204
0.19151965 -0.022275725 -0.14271271 0.09200817 -0.04537756 0.5792196 0.03491697 -0.037952814
-0.21172622 0.18024768 -0.203914 0.01592224 0.20569699 0.023003379 0.37362528 0.15343444
0.12658128 0.60077536 -0.15803327 -0.05962956 -0.12510806 -0.03414132 0.032055587 0.10198276
0.03763788 0.18145995 0.07298773 0.050596952 0.065008424 0.20878457 0.19587858 -0.01362227
-0.11899768 0.029230427 0.10997795 -0.04102399 0.107503295 0.18563509 -0.078516915 0.0470992
0.0264114 0.120601796 -0.110598326 -0.15178768 -0.12901115 -0.073753215 -0.053564876 -0.14822505
-0.13638109 0.058127053 0.07740001 0.1865852 -0.10847149 0.022980014 0.045829177 -0.032894433
-0.010468651 0.0712892 -0.16413389 -0.04180541 -0.13783258 0.11030104 -0.01831852 0.0017305533
0.06779032 0.14011513 0.18283278 -0.18878008 -0.07959868 0.10625732 -0.044585705 -0.24197388
-0.03228706 -0.14433464 0.104484916 -0.0972137 -0.032387305 -0.11848059 -0.06346602 0.15412974
0.09286866 -0.10537309 0.11720344 -0.099600144 0.1086858 -0.040775012 0.15119396 0.17521663
0.08946756 -0.20489857 -0.039594565 -0.04169935 -0.15383393 -0.11925528 -0.1484745 0.10537704
0.040267624 -0.111274585 -0.07205266 0.2081403 -0.12943593 -0.12201519 0.031441323 0.1729133
-0.08375121 -0.12848261 0.08761773 -0.09579445 -0.04228595 -0.10764146 -0.10939329 -0.13802578
0.15765367 0.13372564 0.123573735 -0.078252666 -0.14609465 0.16904326 0.011136337 -0.15377428
0.059583906 -0.17071788 -0.18683685 0.10750083 -0.0932689 -0.06679058 -0.16207801 0.1454691
-0.115347885 -0.108088665 0.13303001 -0.07473624 0.10417866 0.1531901 -0.16305767 0.10546591
0.09112314 0.08634789 0.012263162 0.4258055 0.036933344 -0.07740097 -0.046515133 -0.07859964
0.36451155 0.20380816 -0.16548516 0.22983958 0.38784727 0.41033417 -0.0012648228 -0.052550267
-0.09187331 0.070898846 -0.036204726 0.55259746 0.1367871 -0.10830274 -0.19510621 0.11321953
-0.17125082 -0.007622967 -0.030449893 0.14686678 0.2953759 0.19193901 -0.042728182 0.5201934
-0.05049973 -0.11344873 0.06542162 0.08131242 0.008366282 0.06818573 0.07264031 0.11511821
0.25378922 0.04906097 0.049939133 0.02635614 -0.027314454 0.05338008 -0.10386935 0.076431066
00000000: 7a34 00be 6b32 133e 1faf 563e fc57 b33d
00000010: efe5 093e 5c24 8b3e 2d66 903d c641 5cbd
00000020: f083 3e3e 244e b0bd dbd2 ff3d c1f6 dd3d
00000030: 5082 76be 0559 b63e 1c56 9d3c f994 5c3e
00000040: ba1d 443e 957b b6bc 4823 12be c86e bc3d
00000050: d2dd 39bd bc47 143f 1905 0f3d 6974 1bbd
00000060: c2ce 58be d992 383e d5ce 50be 5c6f 823c
00000070: 3ba2 523e 9571 bc3c d04b bf3e eb1d 1d3e
00000080: 869e 013e 6acc 193f 79d3 21be 203e 74bd
00000090: 541c 00be c5d7 0bbd b84c 033d 56dc d03d
000000a0: 2d2a 1a3d a3d0 393e 977a 953d c03e 4f3d
000000b0: 2323 853d 9fcb 553e 6594 483e f12f 5fbc
000000c0: 0eb5 f3bd a674 ef3c 1f3c e13d c508 28bd
000000d0: b02a dc3d 2017 3e3e 7acd a0bd 17eb 403d
000000e0: b85c d83c 13fe f63d 6081 e2bd 3b6e 1bbe
000000f0: 801b 04be ed0b 97bd d866 5bbd 4fc8 17be
00000100: 7ca7 0bbe a216 6e3d e583 9e3d 3110 3f3e
00000110: 4d26 debd 9540 bc3c 60b7 3b3d 50bc 06bd
00000120: b484 2bbc 1200 923d b712 28be 263c 2bbd
00000130: fc23 0dbe 83e5 e13d b910 96bc bcd3 e23a
00000140: a7d5 8a3d 577a 0f3e 8438 3b3e 914f 41be
00000150: a204 a3bd 709d d93d 809f 36bd 00c8 77be
00000160: 703f 04bd 76cc 13be 30fc d53d fa17 c7bd
00000170: 8da8 04bd f4a5 f2bd 79fa 81bd 30d4 1d3e
00000180: ed31 be3d d9cd d7bd 5b08 f03d 29fb cbbd
00000190: a996 de3d b303 27bd 97d2 1a3e fd6b 333e
000001a0: c53a b73d eed0 51be e92d 22bd f0cc 2abd
000001b0: a486 1dbe 1d3c f4bd b309 18be ebcf d73d
000001c0: aaef 243d eee3 e3bd 5890 93bd bb22 553e
000001d0: da8a 04be 1ae3 f9bd 9ec8 003d 2f10 313e
000001e0: c185 abbd f290 03be ed70 b33d e12f c4bd
000001f0: 0834 2dbd 2073 dcbd 9709 e0bd a156 0dbe
00000200: f76f 213e 60ef 083e 3a14 fd3d ef42 a0bd
00000210: d699 15be ad19 2d3e 2f75 363c 0177 1dbe
00000220: 410e 743d abd0 2ebe 2952 3fbe 6529 dc3d
00000230: c403 bfbd 80c9 88bd c7f7 25be daf5 143e
00000240: 833b ecbd 975d ddbd 0539 083e 500f 99bd
00000250: 9f5b d53d dedd 1c3e 97f8 26be 83fe d73d
00000260: c59e ba3d 2ad7 b03d 6eeb 483c 2e03 da3e
00000270: 6b47 173d 6684 9ebd a786 3ebd d9f8 a0bd
00000280: 42a1 ba3e 16b3 503e f174 29be 115b 6b3e
00000290: eb93 c63e 5217 d23e 69c8 a5ba f33e 57bd
000002a0: 1328 bcbd 6a33 913d 684b 14bd 0777 0d3f
000002b0: eb11 0c3e d4cd ddbd ecc9 47be a4df e73d
000002c0: 605c 2fbe 15ca f9bb 0e72 f9bc 3f64 163e
000002d0: 833b 973e a98b 443e bf03 2fbd 652b 053f
000002e0: ced8 4ebd cf57 e8bd c5fb 853d 2087 a63d
000002f0: bb12 093c f6a4 8b3d 71c4 943d 19c3 eb3d
00000300: a9f0 813e 28f4 483d fa8c 4c3d d5e8 d73c
00000310: 90c2 dfbc 12a5 5a3d 74b9 d4bd e487 9c3d

sequential/lstm_1/Read_2/ReadVariableOp1 f4 [200]
-0.0047524227 0.14725792 0.008031439 0.048170857 -0.014149401 0.03652675 0.00931154 0.03779206
0.008719217 -0.014994486 0.0055218055 -0.001378255 0.005014394 -0.0022906607 0.045353215 0.11342702
-0.0010049214 0.00024724795 -0.019381326 0.18501955 -0.0024182326 0.05043565 -0.0037092401 -0.0083645005
0.04338179 0.003593733 0.124728 0.9227373 0.027483586 0.369999 0.043950036 0.009083856
0.07812908 -0.0014537713 0.016443126 -0.017057458 -0.0013473305 0.0037634354 -0.02155098 0.016170619
0.010029526 0.15268624 -0.009738133 0.0061285277 -0.00030664817 0.078384936 -0.035707626 -0.0107821245
0.002907094 0.014085374 0.96069455 0.89285445 0.9894237 0.9547881 0.9573593 0.9833314
0.9937986 0.9740505 0.98461735 0.96261054 0.9878991 0.96792156 0.9928659 0.9751052
0.97314984 0.9723045 0.9803837 0.98739475 0.96904355 0.87012523 0.9617498 0.957916
0.98552597 0.9805914 0.9343577 0.99189615 0.8914924 0.7174052 0.9609105 0.8639201
0.9222095 0.9410305 0.9139899 0.9847828 0.9918447 0.9605546 0.9592362 0.9845277
0.95080346 0.9770785 0.98361915 0.9054414 0.9804433 0.9711436 0.9818141 0.9113704
0.94591874 0.95739466 0.98869437 0.95188415 0.014543052 -0.022688236 0.008078257 -0.015388316
0.0054068957 -0.0066642473 -0.011598067 0.011928975 -0.015245549 -0.008768032 0.010833086 -0.0071248217
-0.01577283 -0.010010856 -0.016423319 -0.0144839715 0.015230983 -0.018090256 0.012215971 -0.018704765
0.010377458 -0.017864767 -0.0132523915 0.007686788 0.0042303614 -0.00013069715 -0.009165911 -0.016392674
-0.024352161 0.015517197 -0.0020825362 -0.008324078 -0.013077611 -0.0123312585 -0.012878872 -0.0097723305
-0.012401528 -0.013803553 -0.0069485446 0.017542223 -0.011891921 0.0049947463 -0.003184301 -0.0010306137
-0.012239882 0.021990556 -0.0022807966 -0.0052526393 -0.01516702 0.006128818 -0.0053033 0.1488558
0.007804186 0.045389116 -0.014706137 0.036026347 0.008673466 0.036594883 0.008324109 -0.014839141
0.0049381424 -0.0013788368 0.0049065743 -0.001221766 0.04445137 0.11066822 -0.0010117919 0.00043474112
-0.01932366 0.18630804 -0.003562261 0.047731068 -0.0038929705 -0.00807882 0.041105643 0.0037428848
0.11016267 0.92800826 0.025498541 0.35990202 0.04275926 0.007423248 0.077739455 -0.0011131327
0.016198931 -0.017108358 -0.00092748983 0.0031094146 -0.021522071 0.01774246 0.008135698 0.14916469
-0.009776042 0.0062784464 0.00036476768 0.079233184 -0.037874937 -0.01042461 0.004675211 0.013763685
00000000: 36ba 9bbb c8ca 163e 4c96 033c ce4e 453d
00000010: e4d2 67bc 139d 153d 6e8f 183c d9cb 1a3d
00000020: 0cdb 0e3c 6fab 75bc 43f0 b43b 90a6 b4ba
00000030: c94f a43b e91e 16bb 4bc4 393d 6d4c e83d
00000040: 91b7 83ba 0fa1 8139 96c5 9ebc c475 3d3e
00000050: 367b 1ebb 9d95 4e3d b916 73bb 420b 09bc
00000060: 1bb1 313d d684 6b3b 6571 ff3d 8338 6c3f
00000070: 4225 e13c 8270 bd3e f404 343d 74d4 143c
00000080: 2402 a03d 788c beba bcb3 863c 15bc 8bbc
00000090: e998 b0ba f8a3 763b ae8b b0bc 3f78 843c
000000a0: e252 243c c859 1c3e b18c 1fbc d1d1 c83b
000000b0: 9fc5 a0b9 4888 a03d 2942 12bd 82a7 30bc
000000c0: f284 3e3b 57c6 663c 14f0 753f 1c92 643f
000000d0: df4a 7d3f fe6c 743f 8015 753f 9bbb 7b3f
000000e0: 9669 7e3f 605b 793f e20f 7c3f a56d 763f
000000f0: f5e6 7c3f b5c9 773f 762c 7e3f 7fa0 793f
00000100: 5920 793f f3e8 783f 6dfa 7a3f e7c5 7c3f
00000110: 3d13 783f 87c0 5e3f 3c35 763f fc39 753f
00000120: 6e4b 7c3f 0a08 7b3f 1132 6f3f e8ec 7d3f
00000130: d938 643f dea7 373f 3bfe 753f de29 5d3f
00000140: ec15 6c3f 60e7 703f 3efb 693f ba1a 7c3f
00000150: 89e9 7d3f e8e6 753f 8190 753f 020a 7c3f
00000160: db67 733f d121 7a3f 77ce 7b3f 02cb 673f
00000170: 55fe 7a3f de9c 783f 2b58 7b3f 924f 693f
00000180: bb27 723f d117 753f 131b 7d3f aeae 733f
00000190: fb45 6e3c aedc b9bc aa5a 043c 461f 7cbc
000001a0: 542c b13b c25f dabb d205 3ebc bf71 433c
000001b0: 78c8 79bc cba7 0fbc 427d 313c 5677 e9bb
000001c0: 0636 81bc 9304 24bc 328a 86bc 2e4e 6dbc
000001d0: 5f8b 793c 0432 94bc 7f25 483c bc3a 99bc
000001e0: 3706 2a3c 2259 92bc 8f20 59bc 74e1 fb3b
000001f0: d89e 8a3b c00b 09b9 9e2c 16bc ee49 86bc
00000200: 2f7e c7bc d73b 7e3c 297b 08bb b761 08bc
00000210: 7a43 56bc 0c09 4abc e801 53bc 201c 20bc
00000220: c72f 4bbc 4c28 62bc 9eb0 e3bb b5b4 8f3c
00000230: 55d6 42bc f8aa a33b b5af 50bb a815 87ba
00000240: c989 48bc 8a25 b43c 6b79 15bb 551e acbb
00000250: 187f 78bc 40d4 c83b 4ec7 adbb a86d 183e
00000260: 42ba ff3b f0e9 393d 02f2 70bc 5d90 133d
00000270: 271b 0e3c 84e4 153d d861 083c de1f 73bc
00000280: 24d0 a13b 16ba b4ba 54c7 a03b aa23 a0ba
00000290: a412 363d 05a6 e23d 1a9e 84ba f7ed e339
000002a0: a74c 9ebc 89c7 3e3e d274 69bb a781 433d
000002b0: 3521 7fbb 075d 04bc 645e 283d 304b 753b
000002c0: f79c e13d f391 6d3f 51e2 d03c 1445 b83e
000002d0: 5524 2f3d b83e f33b dd35 9f3d 89e6 91ba
000002e0: 9fb3 843c d426 8cbc ca22 73ba 52c7 4b3b
000002f0: 0e4f b0bc a358 913c 974b 053c a1be 183e
00000300: b12b 20bc 6dbb cd3b 4a3e bf39 0245 a23d
00000310: c022 1bbd fccb 2abc 8332 993b 1481 613c

while/MatMul_14 f4 [200, 50]
0.03140971 0.009675035 -0.07378758 0.03887577 -0.07080661 -0.021601198 -0.050511062 0.033424165
0.10715824 -0.07239927 -0.011134336 -0.053482015 0.02340254 0.04547911 -0.07403218 0.15579918
0.002820199 -0.025839945 0.00021803993 -0.14210203 -0.06839113 0.11832849 0.01411341 0.007517165
-0.034813378 0.026324717 -0.058533493 0.11497894 -0.0072280145 -0.02730093 -0.036420923 0.020039942
0.1105477 -0.08952869 -0.041978523 0.017783565 0.10312251 -0.11643177 -0.017572416 -0.02423361
0.061220963 -0.020213822 0.14869384 -0.034635708 -0.017677583 -0.034502797 0.06134697 -0.06525549
-0.030489812 -0.061755717 -0.07962609 -0.15170382 0.06833939 0.06202069 0.012934806 0.10669722
0.006039892 -0.057211574 0.07131538 -0.056388233 -0.04537864 -0.015167539 0.056864638 0.22234671
0.09817045 0.068930574 0.098064475 0.041585624 0.020728277 0.07211934 0.13977608 0.013358735
0.14074644 0.049046252 0.009935133 0.1395062 0.05058118 0.087504685 0.12763616 -0.0542589
0.0044839727 -0.031322684 0.06610806 -0.054604113 0.048650652 -0.047419142 0.13071135 0.0044202805
0.036141366 -0.036889028 0.05953433 -0.14700913 -0.029624144 -0.027664777 -0.0711786 0.060168132
0.0037523487 -0.16342947 0.05745125 -0.0056449226 -0.083606765 0.008320037 0.036723353 -0.09885565
-0.038295202 -0.00076506543 -0.13374539 0.031073121 0.030505823 -0.012214972 0.08793889 -0.07617841
0.06979422 -0.09748874 -0.022302855 -0.12480433 -0.009255773 0.09480335 0.0355007 0.055336505
-0.09873396 0.078085706 0.07333372 0.004340177 -0.099485755 0.051818825 0.095109336 -0.052947525
0.14408773 0.017811498 0.05793376 0.062030863 -0.030603588 0.035491914 0.036234297 0.010372604
0.08363953 0.124352016 -0.027566617 -0.06316292 -0.129791 -0.07248586 0.108531974 0.069778234
0.031826764 -0.13309245 -0.028154649 -0.035800543 -0.027625464 -0.023952592 -0.061336696 -0.05461859
-0.08733076 -0.06864361 0.10796434 0.0018013566 -0.023387585 0.13138512 0.0624282 0.10893494
0.027237443 0.064692475 0.11127432 -0.040972125 -0.051463842 0.034483634 -0.0211373 0.04472551
-0.04557405 -0.0039362917 0.15252636 -0.054161478 0.060475003 0.08754743 0.04682877 0.10934043
-0.04181647 -0.004068914 -0.03914663 0.06401042 0.043372907 -0.013569654 -0.1628036 0.05537453
-0.11684982 0.033650942 0.052970167 0.060892716 -0.10179173 -0.031219484 0.027287062 0.004095265
0.007747223 -0.036371462 -0.010063575 0.11065879 0.021968734 -0.045188647 -0.050906777 0.029934287
0.026288556 -0.09721871 0.0016524472 -0.11331879 -0.042658627 -0.041408956 -0.13505282 0.089850076
0.11342078 -0.03213199 -0.03070772 -0.031986397 -0.10263014 -0.018787436 0.035579298 0.036835898
-0.04272869 -0.06259949 -0.053396367 0.056549568 0.05292697 0.040513523 -0.08294613 0.04409011
0.105338074 -0.110050805 0.079180315 -0.08817597 -0.015762515 -0.105111636 -0.13229945 -0.16540076
0.096480906 0.053358134 -0.056268018 0.016314387 0.08113581 0.060427118 -0.039904032 -0.07232162
-0.07315718 0.15397318 -0.03097326 0.08545996 0.09738142 -0.0053183027 -0.15294352 0.09291061
-0.0028335436 0.013402209 0.13674058 0.017141718 0.048107747 -0.06889259 0.067503475 -0.057073805
00000000: 78a7 003d 0a84 1e3c f11d 97bd 333c 1f3d
00000010: 0e03 91bd fff4 b0bc b0e4 4ebd c7e7 083d
00000020: c875 db3d 1246 94bd ca6c 36bc f50f 5bbd
00000030: afb6 bf3c 4e48 3a3d 2f9e 97bd d289 1f3e
00000040: 16d3 383b 4bae d3bc a6a1 6439 3283 11be
00000050: a610 8cbd 3556 f23d ef3b 673c 8d52 f63b
00000060: 7998 0ebd efa6 d73c d1c0 6fbd 147a eb3d
00000070: fbd8 ecbb 33a6 dfbc 1b2e 15bd ce2a a43c
00000080: d566 e23d d15a b7bd acf1 2bbd d7ae 913c
00000090: e531 d33d c873 eebd 07f4 8fbc 9085 c6bc
000000a0: d5c2 7a3d 7597 a5bc 3343 183e 2cde 0dbd
000000b0: 94d0 90bc ce52 0dbd f646 7b3d aca4 85bd
000000c0: c5c5 f9bc 90f3 7cbd 0113 a3bd 3f58 1bbe
000000d0: 86f5 8b3d 6809 7e3d 82ec 533c 1284 da3d
000000e0: 49ea c53b af56 6abd cc0d 923d 59f7 66bd
000000f0: f4de 39bd 4581 78bc e5ea 683d dbae 633e
00000100: 970d c93d 792b 8d3d 07d6 c83d b055 2a3d
00000110: 59ce a93c 4eb3 933d 7621 0f3e 98de 5a3c
00000120: d61f 103e b9e4 483d f8c6 223c b7da 0e3e
00000130: 362e 4f3d a835 b33d 0eb3 023e 953e 5ebd
00000140: 4aee 923b 374c 00bd aa63 873d 90a8 5fbd
00000150: e845 473d 933a 42bd 32d9 053e 00d8 903b
00000160: f808 143d f318 17bd 45da 733d 9089 16be
00000170: 55ae f2bc 3ea1 e2bc 16c6 91bd dc72 763d
00000180: f7e9 753b 0e5a 27be 0052 6b3d 0bf9 b8bb
00000190: 063a abbd c450 083c 3a6b 163d d574 cabd
000001a0: 6edb 1cbd ac8e 48ba 8df4 08be 0f8d fe3c
000001b0: 59e7 f93c 4e21 48bc 4e19 b43d 6d03 9cbd
000001c0: 46f0 8e3d 2da8 c7bd 7ab4 b6bc 6a99 ffbd
000001d0: 87a5 17bc 4228 c23d 2f69 113d 88a8 623d
000001e0: 0835 cabd 66eb 9f3d fd2f 963d 0b38 8e3b
000001f0: 30bf cbbd fa3f 543d afc8 c23d 81df 58bd
00000200: bc8b 133e 6be9 913c f34b 6d3d 1314 7e3d
00000210: 60b4 fabc f85f 113d 6a6a 143d dbf1 293c
00000220: 344b ab3d 45ac fe3d 63d3 e1bc 905b 81bd
00000230: efe7 04be 7773 94bd 0346 de3d e4e7 8e3d
00000240: c85c 023d 6349 08be 94a4 e6bc 97a3 12bd
00000250: cc4e e2bc 3a38 c4bc 303c 7bbd beb7 5fbd
00000260: 78da b2bd 0595 8cbd 681c dd3d 7f1b ec3a
00000270: 5297 bfbc d289 063e b6b4 7f3d 4819 df3d
00000280: 0f21 df3c 7d7d 843d cae3 e33d 63d2 27bd
00000290: c0cb 52bd b63e 0d3d 2228 adbc 1932 373d
000002a0: dbab 3abd 02fc 80bb df2f 1c3e 6dd8 5dbd
000002b0: a3b4 773d 114c b33d 86cf 3f3d e0ed df3d
000002c0: bf47 2bbd 8654 85bb 3758 20bd e517 833d
000002d0: caa7 313d 4153 5ebc fdb5 26be 67d0 623d
000002e0: f54e efbd 92d5 093d 3ff7 583d a46a 793d
000002f0: 2f78 d0bd 01c0 ffbc 1e89 df3c 9331 863b
00000300: 6bdc fd3b 3efa 14bd b1e1 24bc 13a1 e23d
00000310: c6f7 b33c bb17 39bd a083 50bd c038 f53c
00000320: 195b d73c 9a1a c7bd ed96 d83a af13 e8bd
00000330: d0ba 2ebd 709c 29bd 494b 0abe 5103 b83d
00000340: 2749 e83d d59c 03bd c28e fbbc 2b04 03bd
00000350: c02f d2bd 1ce8 99bc 99bb 113d 3de1 163d
00000360: 4704 2fbd 2934 80bd 26b6 5abd 85a0 673d
00000370: f3c9 583d 82f1 253d a9df a9bd d597 343d
00000380: 7dbb d73d 5162 e1bd 4a29 a23d 9a95 b4bd
00000390: 6420 81bc c544 d7bd 8279 07be d15e 29be
000003a0: c897 c53d 0f8e 5a3d 4b79 66bd c0a5 853c
000003b0: 882a a63d 6d82 773d 6972 23bd 5c1d 94bd
000003c0: 6ed3 95bd 25ab 1d3e a2bb fdbc a205 af3d
000003d0: e96f c73d 2845 aebb 3a9d 1cbe eb47 be3d
000003e0: f9b2 39bb f094 5b3c b905 0c3e ca6c 8c3c
000003f0: a10c 453d 8f17 8dbd 433f 8a3d 39c6 69bd
